…
"}},"outputId":"da14faf9-e36b-439d-b554-5afc9180a5e2"},"execution_count":79,"outputs":[{"output_type":"stream","name":"stdout","text":["torch.Size([4, 3, 256, 256])\n"]}]},{"cell_type":"code","source":["model.eval()"],"metadata":{"id":"52CNEOwvGNtd","colab":{"base_uri":"https://localhost:8080/"},"executionInfo":{"status":"ok","timestamp":1672640401374,"user_tz":-540,"elapsed":9,"user":{"displayName":"리미누","userId":"10960127468446100835"}},"outputId":"cce32df6-ead3-47ce-9c62-c72651ae0b26"},"execution_count":80,"outputs":[{"output_type":"execute_result","data":{"text/plain":["GRCNN(\n","  (conv1): Conv2d(3, 64, kernel_size=(7, 7), stride=(2, 2), padding=(3, 3), bias=False)\n","  (bn1): BatchNorm2d(64, eps=1e-05, momentum=0.1, affine=True, track_running_stats=True)\n","  (relu): ReLU(inplace=True)\n","  (maxpool): MaxPool2d(kernel_size=3, stride=2, padding=1, dilation=1, ceil_mode=False)\n","  (conv2): Conv2d(64, 64, kernel_size=(3, 3), stride=(1, 1), padding=(1, 1), bias=False)\n","  (layer1): GRCL(\n","    (bn_f): BatchNorm2d(64, eps=1e-05, momentum=0.1, affine=True, track_running_stats=True)\n","    (relu_f): ReLU(inplace=True)\n","    (conv_f): Conv2d(64, 256, kernel_size=(3, 3), stride=(1, 1), padding=(1, 1), groups=32, bias=False)\n","    (bn_g_f): BatchNorm2d(64, eps=1e-05, momentum=0.1, affine=True, track_running_stats=True)\n","    (relu_g_f): ReLU(inplace=True)\n","    (conv_g_f): Conv2d(64, 256, kernel_size=(1, 1), stride=(1, 1), groups=32)\n","    (conv_g_r): Conv2d(256, 256, kernel_size=(1, 1), stride=(1, 1), groups=32, bias=False)\n","    (sig): Sigmoid()\n","    (iter_1): Sequential(\n","      (0): BatchNorm2d(256, eps=1e-05, momentum=0.1, affine=True, track_running_stats=True)\n","      (1): ReLU(inplace=True)\n","      (2): Conv2d(256, 64, kernel_size=(1, 1), stride=(1, 1), bias=False)\n","      (3): BatchNorm2d(64, eps=1e-05, momentum=0.1, affine=True, track_running_stats=True)\n","      (4): ReLU(inplace=True)\n","      (5): Conv2d(64, 64, kernel_size=(3, 3), stride=(1, 1), padding=(1, 1), bias=False)\n","      (6): BatchNorm2d(64, eps=1e-05, momentum=0.1, affine=True, track_running_stats=True)\n","      (7): ReLU(inplace=True)\n","      (8): Conv2d(64, 256, kernel_size=(1, 1), stride=(1, 1), bias=False)\n","    )\n","    (iter_g_1): Sequential(\n","      (0): BatchNorm2d(256, eps=1e-05, momentum=0.1, affine=True, track_running_stats=True)\n","      (1): ReLU(inplace=True)\n","    )\n","    (iter_2): Sequential(\n","      (0): BatchNorm2d(256, eps=1e-05, momentum=0.1, affine=True, track_running_stats=True)\n","      (1): ReLU(inplace=True)\n","      (2): Conv2d(256, 64, kernel_size=(1, 1), stride=(1, 1), bias=False)\n","      (3): BatchNorm2d(64, eps=1e-05, momentum=0.1, affine=True, track_running_stats=True)\n","      (4): ReLU(inplace=True)\n","      (5): Conv2d(64, 64, kernel_size=(3, 3), stride=(1, 1), padding=(1, 1), bias=False)\n","      (6): BatchNorm2d(64, eps=1e-05, momentum=0.1, affine=True, track_running_stats=True)\n","      (7): ReLU(inplace=True)\n","      (8): Conv2d(64, 256, kernel_size=(1, 1), stride=(1, 1), bias=False)\n","    )\n","    (iter_g_2): Sequential(\n","      (0): BatchNorm2d(256, eps=1e-05, momentum=0.1, affine=True, track_running_stats=True)\n","      (1): ReLU(inplace=True)\n","    )\n","    (iter_3): Sequential(\n","      (0): BatchNorm2d(256, eps=1e-05, momentum=0.1, affine=True, track_running_stats=True)\n","      (1): ReLU(inplace=True)\n","      (2): Conv2d(256, 64, kernel_size=(1, 1), stride=(1, 1), bias=False)\n","      (3): BatchNorm2d(64, eps=1e-05, momentum=0.1, affine=True, track_running_stats=True)\n","      (4): ReLU(inplace=True)\n","      (5): Conv2d(64, 64, kernel_size=(3, 3), stride=(1, 1), padding=(1, 1), bias=False)\n","      (6): BatchNorm2d(64, eps=1e-05, momentum=0.1, affine=True, track_running_stats=True)\n","      (7): ReLU(inplace=True)\n","      (8): Conv2d(64, 256, kernel_size=(1, 1), stride=(1, 1), bias=False)\n","    )\n","    (iter_g_3): Sequential(\n","      (0): BatchNorm2d(256, eps=1e-05, momentum=0.1, affine=True, track_running_stats=True)\n","      (1): ReLU(inplace=True)\n","    )\n","    (d_bn): BatchNorm2d(256, eps=1e-05, momentum=0.1, affine=True, track_running_stats=True)\n","    (d_relu): ReLU(inplace=True)\n","    (d_conv): Conv2d(256, 256, kernel_size=(1, 1), stride=(1, 1), bias=False)\n","    (d_ave): AvgPool2d(kernel_size=(2, 2), stride=2, padding=0)\n","    (d_bn_1): BatchNorm2d(256, eps=1e-05, momentum=0.1, affine=True, track_running_stats=True)\n","    (d_relu_1): ReLU(inplace=True)\n","    (d_conv_1): Conv2d(256, 64, kernel_size=(1, 1), stride=(1, 1), bias=False)\n","    (d_bn_3): BatchNorm2d(64, eps=1e-05, momentum=0.1, affine=True, track_running_stats=True)\n","    (d_relu_3): ReLU(inplace=True)\n","    (d_conv_3): Conv2d(64, 64, kernel_size=(3, 3), stride=(2, 2), padding=(1, 1), bias=False)\n","    (d_conv_1e): Conv2d(64, 256, kernel_size=(1, 1), stride=(1, 1), bias=False)\n","  )\n","  (layer2): GRCL(\n","    (bn_f): BatchNorm2d(256, eps=1e-05, momentum=0.1, affine=True, track_running_stats=True)\n","    (relu_f): ReLU(inplace=True)\n","    (conv_f): Conv2d(256, 512, kernel_size=(3, 3), stride=(1, 1), padding=(1, 1), groups=32, bias=False)\n","    (bn_g_f): BatchNorm2d(256, eps=1e-05, momentum=0.1, affine=True, track_running_stats=True)\n","    (relu_g_f): ReLU(inplace=True)\n","    (conv_g_f): Conv2d(256, 512, kernel_size=(1, 1), stride=(1, 1), groups=32)\n","    (conv_g_r): Conv2d(512, 512, kernel_size=(1, 1), stride=(1, 1), groups=32, bias=False)\n","    (sig): Sigmoid()\n","    (iter_1): Sequential(\n","      (0): BatchNorm2d(512, eps=1e-05, momentum=0.1, affine=True, track_running_stats=True)\n","      (1): ReLU(inplace=True)\n","      (2): Conv2d(512, 128, kernel_size=(1, 1), stride=(1, 1), bias=False)\n","      (3): BatchNorm2d(128, eps=1e-05, momentum=0.1, affine=True, track_running_stats=True)\n","      (4): ReLU(inplace=True)\n","      (5): Conv2d(128, 128, kernel_size=(3, 3), stride=(1, 1), padding=(1, 1), bias=False)\n","      (6): BatchNorm2d(128, eps=1e-05, momentum=0.1, affine=True, track_running_stats=True)\n","      (7): ReLU(inplace=True)\n","      (8): Conv2d(128, 512, kernel_size=(1, 1), stride=(1, 1), bias=False)\n","    )\n","    (iter_g_1): Sequential(\n","      (0): BatchNorm2d(512, eps=1e-05, momentum=0.1, affine=True, track_running_stats=True)\n","      (1): ReLU(inplace=True)\n","    )\n","    (iter_2): Sequential(\n","      (0): BatchNorm2d(512, eps=1e-05, momentum=0.1, affine=True, track_running_stats=True)\n","      (1): ReLU(inplace=True)\n","      (2): Conv2d(512, 128, kernel_size=(1, 1), stride=(1, 1), bias=False)\n","      (3): BatchNorm2d(128, eps=1e-05, momentum=0.1, affine=True, track_running_stats=True)\n","      (4): ReLU(inplace=True)\n","      (5): Conv2d(128, 128, kernel_size=(3, 3), stride=(1, 1), padding=(1, 1), bias=False)\n","      (6): BatchNorm2d(128, eps=1e-05, momentum=0.1, affine=True, track_running_stats=True)\n","      (7): ReLU(inplace=True)\n","      (8): Conv2d(128, 512, kernel_size=(1, 1), stride=(1, 1), bias=False)\n","    )\n","    (iter_g_2): Sequential(\n","      (0): BatchNorm2d(512, eps=1e-05, momentum=0.1, affine=True, track_running_stats=True)\n","      (1): ReLU(inplace=True)\n","    )\n","    (iter_3): Sequential(\n","      (0): BatchNorm2d(512, eps=1e-05, momentum=0.1, affine=True, track_running_stats=True)\n","      (1): ReLU(inplace=True)\n","      (2): Conv2d(512, 128, kernel_size=(1, 1), stride=(1, 1), bias=False)\n","      (3): BatchNorm2d(128, eps=1e-05, momentum=0.1, affine=True, track_running_stats=True)\n","      (4): ReLU(inplace=True)\n","      (5): Conv2d(128, 128, kernel_size=(3, 3), stride=(1, 1), padding=(1, 1), bias=False)\n","      (6): BatchNorm2d(128, eps=1e-05, momentum=0.1, affine=True, track_running_stats=True)\n","      (7): ReLU(inplace=True)\n","      (8): Conv2d(128, 512, kernel_size=(1, 1), stride=(1, 1), bias=False)\n","    )\n","    (iter_g_3): Sequential(\n","      (0): BatchNorm2d(512, eps=1e-05, momentum=0.1, affine=True, track_running_stats=True)\n","      (1): ReLU(inplace=True)\n","    )\n","    (d_bn): BatchNorm2d(512, eps=1e-05, momentum=0.1, affine=True, track_running_stats=True)\n","    (d_relu): ReLU(inplace=True)\n","    (d_conv): Conv2d(512, 512, kernel_size=(1, 1), stride=(1, 1), bias=False)\n","    (d_ave): AvgPool2d(kernel_size=(2, 2), stride=2, padding=0)\n","    (d_bn_1): BatchNorm2d(512, eps=1e-05, momentum=0.1, affine=True, track_running_stats=True)\n","    (d_relu_1): ReLU(inplace=True)\n","    (d_conv_1): Conv2d(512, 128, kernel_size=(1, 1), stride=(1, 1), bias=False)\n","    (d_bn_3): BatchNorm2d(128, eps=1e-05, momentum=0.1, affine=True, track_running_stats=True)\n","    (d_relu_3): ReLU(inplace=True)\n","    (d_conv_3): Conv2d(128, 128, kernel_size=(3, 3), stride=(2, 2), padding=(1, 1), bias=False)\n","    (d_conv_1e): Conv2d(128, 512, kernel_size=(1, 1), stride=(1, 1), bias=False)\n","  )\n","  (layer3): GRCL(\n","    (bn_f): BatchNorm2d(512, eps=1e-05, momentum=0.1, affine=True, track_running_stats=True)\n","    (relu_f): ReLU(inplace=True)\n","    (conv_f): Conv2d(512, 1024, kernel_size=(3, 3), stride=(1, 1), padding=(1, 1), groups=32, bias=False)\n","    (bn_g_f): BatchNorm2d(512, eps=1e-05, momentum=0.1, affine=True, track_running_stats=True)\n","    (relu_g_f): ReLU(inplace=True)\n","    (conv_g_f): Conv2d(512, 1024, kernel_size=(1, 1), stride=(1, 1), groups=32)\n","    (conv_g_r): Conv2d(1024, 1024, kernel_size=(1, 1), stride=(1, 1), groups=32, bias=False)\n","    (sig): Sigmoid()\n","    (iter_1): Sequential(\n","      (0): BatchNorm2d(1024, eps=1e-05, momentum=0.1, affine=True, track_running_stats=True)\n","      (1): ReLU(inplace=True)\n","      (2): Conv2d(1024, 256, kernel_size=(1, 1), stride=(1, 1), bias=False)\n","      (3): BatchNorm2d(256, eps=1e-05, momentum=0.1, affine=True, track_running_stats=True)\n","      (4): ReLU(inplace=True)\n","      (5): Conv2d(256, 256, kernel_size=(3, 3), stride=(1, 1), padding=(1, 1), bias=False)\n","      (6): BatchNorm2d(256, eps=1e-05, momentum=0.1, affine=True, track_running_stats=True)\n","      (7): ReLU(inplace=True)\n","      (8): Conv2d(256, 1024, kernel_size=(1, 1), stride=(1, 1), bias=False)\n","    )\n","    (iter_g_1): Sequential(\n","      (0): BatchNorm2d(1024, eps=1e-05, momentum=0.1, affine=True, track_running_stats=True)\n","      (1): ReLU(inplace=True)\n","    )\n","    (iter_2): Sequential(\n","      (0): BatchNorm2d(1024, eps=1e-05, momentum=0.1, affine=True, track_running_stats=True)\n","      (1): ReLU(inplace=True)\n","      (2): Conv2d(1024, 256, kernel_size=(1, 1), stride=(1, 1), bias=False)\n","      (3): BatchNorm2d(256, eps=1e-05, momentum=0.1, affine=True, track_running_stats=True)\n","      (4): ReLU(inplace=True)\n","      (5): Conv2d(256, 256, kernel_size=(3, 3), stride=(1, 1), padding=(1, 1), bias=False)\n","      (6): BatchNorm2d(256, eps=1e-05, momentum=0.1, affine=True, track_running_stats=True)\n","      (7): ReLU(inplace=True)\n","      (8): Conv2d(256, 1024, kernel_size=(1, 1), stride=(1, 1), bias=False)\n","    )\n","    (iter_g_2): Sequential(\n","      (0): BatchNorm2d(1024, eps=1e-05, momentum=0.1, affine=True, track_running_stats=True)\n","      (1): ReLU(inplace=True)\n","    )\n","    (iter_3): Sequential(\n","      (0): BatchNorm2d(1024, eps=1e-05, momentum=0.1, affine=True, track_running_stats=True)\n","      (1): ReLU(inplace=True)\n","      (2): Conv2d(1024, 256, kernel_size=(1, 1), stride=(1, 1), bias=False)\n","      (3): BatchNorm2d(256, eps=1e-05, momentum=0.1, affine=True, track_running_stats=True)\n","      (4): ReLU(inplace=True)\n","      (5): Conv2d(256, 256, kernel_size=(3, 3), stride=(1, 1), padding=(1, 1), bias=False)\n","      (6): BatchNorm2d(256, eps=1e-05, momentum=0.1, affine=True, track_running_stats=True)\n","      (7): ReLU(inplace=True)\n","      (8): Conv2d(256, 1024, kernel_size=(1, 1), stride=(1, 1), bias=False)\n","    )\n","    (iter_g_3): Sequential(\n","      (0): BatchNorm2d(1024, eps=1e-05, momentum=0.1, affine=True, track_running_stats=True)\n","      (1): ReLU(inplace=True)\n","    )\n","    (iter_4): Sequential(\n","      (0): BatchNorm2d(1024, eps=1e-05, momentum=0.1, affine=True, track_running_stats=True)\n","      (1): ReLU(inplace=True)\n","      (2): Conv2d(1024, 256, kernel_size=(1, 1), stride=(1, 1), bias=False)\n","      (3): BatchNorm2d(256, eps=1e-05, momentum=0.1, affine=True, track_running_stats=True)\n","      (4): ReLU(inplace=True)\n","      (5): Conv2d(256, 256, kernel_size=(3, 3), stride=(1, 1), padding=(1, 1), bias=False)\n","      (6): BatchNorm2d(256, eps=1e-05, momentum=0.1, affine=True, track_running_stats=True)\n","      (7): ReLU(inplace=True)\n","      (8): Conv2d(256, 1024, kernel_size=(1, 1), stride=(1, 1), bias=False)\n","    )\n","    (iter_g_4): Sequential(\n","      (0): BatchNorm2d(1024, eps=1e-05, momentum=0.1, affine=True, track_running_stats=True)\n","      (1): ReLU(inplace=True)\n","    )\n","    (d_bn): BatchNorm2d(1024, eps=1e-05, momentum=0.1, affine=True, track_running_stats=True)\n","    (d_relu): ReLU(inplace=True)\n","    (d_conv): Conv2d(1024, 1024, kernel_size=(1, 1), stride=(1, 1), bias=False)\n","    (d_ave): AvgPool2d(kernel_size=(2, 2), stride=2, padding=0)\n","    (d_bn_1): BatchNorm2d(1024, eps=1e-05, momentum=0.1, affine=True, track_running_stats=True)\n","    (d_relu_1): ReLU(inplace=True)\n","    (d_conv_1): Conv2d(1024, 256, kernel_size=(1, 1), stride=(1, 1), bias=False)\n","    (d_bn_3): BatchNorm2d(256, eps=1e-05, momentum=0.1, affine=True, track_running_stats=True)\n","    (d_relu_3): ReLU(inplace=True)\n","    (d_conv_3): Conv2d(256, 256, kernel_size=(3, 3), stride=(2, 2), padding=(1, 1), bias=False)\n","    (d_conv_1e): Conv2d(256, 1024, kernel_size=(1, 1), stride=(1, 1), bias=False)\n","  )\n","  (layer4): GRCL(\n","    (bn_f): BatchNorm2d(1024, eps=1e-05, momentum=0.1, affine=True, track_running_stats=True)\n","    (relu_f): ReLU(inplace=True)\n","    (conv_f): Conv2d(1024, 2048, kernel_size=(3, 3), stride=(1, 1), padding=(1, 1), groups=32, bias=False)\n","    (bn_g_f): BatchNorm2d(1024, eps=1e-05, momentum=0.1, affine=True, track_running_stats=True)\n","    (relu_g_f): ReLU(inplace=True)\n","    (conv_g_f): Conv2d(1024, 2048, kernel_size=(1, 1), stride=(1, 1), groups=32)\n","    (conv_g_r): Conv2d(2048, 2048, kernel_size=(1, 1), stride=(1, 1), groups=32, bias=False)\n","    (sig): Sigmoid()\n","    (iter_1): Sequential(\n","      (0): BatchNorm2d(2048, eps=1e-05, momentum=0.1, affine=True, track_running_stats=True)\n","      (1): ReLU(inplace=True)\n","      (2): Conv2d(2048, 512, kernel_size=(1, 1), stride=(1, 1), bias=False)\n","      (3): BatchNorm2d(512, eps=1e-05, momentum=0.1, affine=True, track_running_stats=True)\n","      (4): ReLU(inplace=True)\n","      (5): Conv2d(512, 512, kernel_size=(3, 3), stride=(1, 1), padding=(1, 1), bias=False)\n","      (6): BatchNorm2d(512, eps=1e-05, momentum=0.1, affine=True, track_running_stats=True)\n","      (7): ReLU(inplace=True)\n","      (8): Conv2d(512, 2048, kernel_size=(1, 1), stride=(1, 1), bias=False)\n","    )\n","    (iter_g_1): Sequential(\n","      (0): BatchNorm2d(2048, eps=1e-05, momentum=0.1, affine=True, track_running_stats=True)\n","      (1): ReLU(inplace=True)\n","    )\n","    (iter_2): Sequential(\n","      (0): BatchNorm2d(2048, eps=1e-05, momentum=0.1, affine=True, track_running_stats=True)\n","      (1): ReLU(inplace=True)\n","      (2): Conv2d(2048, 512, kernel_size=(1, 1), stride=(1, 1), bias=False)\n","      (3): BatchNorm2d(512, eps=1e-05, momentum=0.1, affine=True, track_running_stats=True)\n","      (4): ReLU(inplace=True)\n","      (5): Conv2d(512, 512, kernel_size=(3, 3), stride=(1, 1), padding=(1, 1), bias=False)\n","      (6): BatchNorm2d(512, eps=1e-05, momentum=0.1, affine=True, track_running_stats=True)\n","      (7): ReLU(inplace=True)\n","      (8): Conv2d(512, 2048, kernel_size=(1, 1), stride=(1, 1), bias=False)\n","    )\n","    (iter_g_2): Sequential(\n","      (0): BatchNorm2d(2048, eps=1e-05, momentum=0.1, affine=True, track_running_stats=True)\n","      (1): ReLU(inplace=True)\n","    )\n","    (iter_3): Sequential(\n","      (0): BatchNorm2d(2048, eps=1e-05, momentum=0.1, affine=True, track_running_stats=True)\n","      (1): ReLU(inplace=True)\n","      (2): Conv2d(2048, 512, kernel_size=(1, 1), stride=(1, 1), bias=False)\n","      (3): BatchNorm2d(512, eps=1e-05, momentum=0.1, affine=True, track_running_stats=True)\n","      (4): ReLU(inplace=True)\n","      (5): Conv2d(512, 512, kernel_size=(3, 3), stride=(1, 1), padding=(1, 1), bias=False)\n","      (6): BatchNorm2d(512, eps=1e-05, momentum=0.1, affine=True, track_running_stats=True)\n","      (7): ReLU(inplace=True)\n","      (8): Conv2d(512, 2048, kernel_size=(1, 1), stride=(1, 1), bias=False)\n","    )\n","    (iter_g_3): Sequential(\n","      (0): BatchNorm2d(2048, eps=1e-05, momentum=0.1, affine=True, track_running_stats=True)\n","      (1): ReLU(inplace=True)\n","    )\n","  )\n","  (lastact): Sequential(\n","    (0): BatchNorm2d(2048, eps=1e-05, momentum=0.1, affine=True, track_running_stats=True)\n","    (1): ReLU(inplace=True)\n","  )\n","  (avgpool): AvgPool2d(kernel_size=7, stride=7, padding=0)\n","  (classifier): Linear(in_features=2048, out_features=1000, bias=True)\n",")"]},"metadata":{},"execution_count":80}]},{"cell_type":"code","source":["import torch.nn as nn\n","import torch.nn.functional as F\n","import torch.optim as optim\n","\n","device = torch.device('cuda:0' if torch.cuda.is_available() else 'gpu')\n","print(device)\n","\n"],"metadata":{"colab":{"base_uri":"https://localhost:8080/"},"id":"o4hTTR_UnKE
…
